data.pth (torch, 6431 bytes, 6 tensors)

l1.weight f4 [8, 78]
000000 2a 96 96 be b6 e5 82 be bf 4c 71 3e 87 53 a8 3e
       -0.2941144 -0.2556588 0.23564433 0.32876226
000010 d2 fd 2b bf 8a 03 c6 3e 74 30 33 bf 18 e2 4a 3d
       -0.67184174 0.38674575 -0.6999581 0.049532026
000020 52 14 d2 be 5b 38 d0 be 95 54 c7 be 70 84 85 3e
       -0.41031128 -0.40667996 -0.38931718 0.26077604
000030 63 5d 0e bf f6 d9 8e 3d 1b 93 e3 3e e6 48 35 3e
       -0.55611247 0.069751665 0.4444817 0.1770359
000040 a2 4c a0 3e 6b 06 0b 3f c1 ac dd 3e 59 0f fa bd
       0.31308466 0.5430667 0.43295863 -0.122099586
000050 a8 3c e4 be 16 55 a8 3e b1 08 82 3d 4d ca d7 be
       -0.44577527 0.32877415 0.06349314 -0.4214653
000060 50 d4 13 3e 29 4b d0 be 8e 8c 0d bf 0b 38 e4 be
       0.1443646 -0.40682343 -0.55292594 -0.44574007
000070 2e dd 04 3f 1f 25 f2 be de 20 9b 3e 57 f9 98 3e
       0.51899993 -0.47293946 0.30298513 0.2987773
000080 b2 1c 8b 3e f8 cb c6 3e 2e d0 af 3e 1f cf cf 3e
       0.2717033 0.3882749 0.34338516 0.40587708
000090 4a 4a d1 3e 7d 39 ba 3e cf a5 98 3e b1 95 5f 3e
       0.4087699 0.36371985 0.29814002 0.21834446
0000a0 a0 a6 a6 3d 03 13 c4 bc e6 33 e4 be c7 1e 7c be
       0.0813725 -0.023934847 -0.44570845 -0.24621116
0000b0 eb d6 8c be ea 5f c8 3e d0 4f f2 3e 42 78 ed bd
       -0.2750772 0.39135677 0.47326517 -0.11595203
0000c0 f0 a5 cf 3d 60 e4 5a 3e 86 ea dd 3e 06 42 92 3e
       0.10139072 0.2137618 0.4334299 0.28565997
0000d0 16 c6 27 3e 2c 45 c9 be f8 31 e4 be 9f af f8 3d
       0.16384158 -0.39310586 -0.44569373 0.12142872
0000e0 1c 39 e4 be 1c a7 37 3f 0a 5c 8a be 6f b2 98 3e
       -0.4457482 0.71739364 -0.27023345 0.29823634
0000f0 ca 51 b7 3d 70 64 d6 3d 28 2a 71 3f 33 cf 64 3c
       0.08951147 0.10468376 0.9420495 0.013965416
000100 ab 0e 57 3e 05 76 58 bd 49 c2 89 3e 29 a1 7b 3e
       0.21001689 -0.052846927 0.2690604 0.24573196
000110 c2 5c 03 3e 62 0e 0e 3e 14 12 c5 3e 4c 85 c3 3e
       0.12828353 0.13872674 0.38490355 0.38187635
000120 2b 2e ea 3e 4b 76 bf 3d 74 2a 8a 3e 15 59 7c 3e
       0.45738348 0.093487345 0.26985514 0.24643357
000130 30 42 e4 be dd 31 76 3e 0f 9e 15 bf d5 8b 14 bc
       -0.44581747 0.24042459 -0.58444303 -0.009066542
000140 1e e2 97 3e 40 a0 90 3e 36 da 24 3f 0e 25 83 3e
       0.296647 0.2824726 0.64395463 0.25614208
000150 ae 0e 40 bf 66 1c 4a 3e 8e 06 20 bf 5f 03 20 bf
       -0.750224 0.19737396 -0.6251 -0.62505144
000160 b5 06 20 bf f3 de 06 be 7f c6 19 bf fd 7f b3 3e
       -0.62510234 -0.13170986 -0.60068506 0.35058585
000170 ea 12 51 be 9c b4 95 3e 9a b2 44 bd de f6 29 3f
       -0.20417371 0.29239357 -0.04802189 0.66392314
000180 0e c1 46 be 3a 70 d4 bc be 11 44 3f 6c 5a 31 3f
       -0.19409582 -0.02593242 0.7658957 0.692786
000190 76 35 d4 3c 12 9e 3e 3f b1 60 43 3e 0f 05 20 bf
       0.025904398 0.74459946 0.19079854 -0.6250772
0001a0 7f 15 33 3f 1a a8 62 3f 38 7a 35 3f 17 1e 06 bf
       0.69954675 0.8853775 0.70889616 -0.52389663
0001b0 f3 aa fc 3e a2 25 0b 3f de f7 8e be c7 31 00 3f
       0.49349174 0.543543 -0.27923483 0.50075954
0001c0 5e e9 fc 3e b6 b2 0d 3f 0d be d5 3e 11 9d e8 3e
       0.49396795 0.55350816 0.4174656 0.45432332
0001d0 b0 f3 d3 3e 4e 62 a3 bd 04 9e 9a 3e 72 0b 84 bc
       0.41396856 -0.079777345 0.3019868 -0.016118739
0001e0 99 02 29 3f 51 90 17 3d 71 d4 51 be bb 9e 61 be
       0.6601959 0.037002865 -0.20491196 -0.22033207
0001f0 17 fd 36 3f c6 23 8e 3c 71 a5 6c 3e 3f ba 8a 3e
       0.71479934 0.017351042 0.23109986 0.2709522
000200 0f b8 45 be 1e 43 a3 3e 1a d7 dc 3e 91 dc 84 bc
       -0.19308494 0.31887144 0.4313286 -0.016218456
000210 c9 ef a9 be dc 41 a6 3e f6 52 4b 3f 9c 58 6c 3f
       -0.33190754 0.32472122 0.79423463 0.9232271
000220 7a 27 64 be f7 fe 60 3e 7b 3f aa 3e b2 92 ac 3d
       -0.22280684 0.21972261 0.33251557 0.084264174
000230 43 2e 09 bf 58 47 a6 be fe c6 cc 3e 58 2f a7 bd
       -0.53586215 -0.32476306 0.3999557 -0.08163327
000240 ac fa da be dd 18 b1 be f2 50 8f 3e 05 4b b3 3e
       -0.42769372 -0.34589282 0.27991444 0.35018173
000250 f9 23 8e bd f8 2c 7d be 41 29 90 be 2d a0 7d 3e
       -0.06940455 -0.24724185 -0.28156474 0.24768133
000260 6c f1 61 be 45 ed 7f be 7b 85 29 3f 4a 48 4a be
       -0.22064751 -0.24992855 0.662193 -0.19754139
000270 e2 37 0c 3f c9 f7 85 3e c0 b1 ab bd 97 15 a1 be
       0.5477277 0.26165608 -0.083835125 -0.31461784
000280 88 b6 8c 3e 27 eb 33 3e 09 1b 4d 3f d9 6a 0c 3f
       0.2748301 0.17570172 0.8011938 0.54850537
000290 7c ac 09 bf 27 b1 09 bf 61 ab 09 bf 38 a5 24 be
       -0.53778815 -0.5378594 -0.5377713 -0.16078651
0002a0 6a d2 23 3f 4d 71 0c be 6f 25 54 3d 15 b3 b3 be
       0.6399294 -0.13715096 0.051793512 -0.35097566
0002b0 d4 bb 45 bd 93 fc 0f 3f 91 b2 73 be 33 6f 20 3f
       -0.04827483 0.5624477 -0.23798586 0.62669677
0002c0 53 4b a4 3e 5d 56 38 3f b3 ce 26 3f 83 ac 11 3f
       0.32088718 0.7200678 0.6515915 0.56903857
0002d0 7b 8d 3f be a7 b1 09 bf 7c e7 a8 3e 43 d5 db 3e
       -0.18706314 -0.537867 0.3298911 0.42936143
0002e0 9a cd 0f 3f a4 7d 90 be b8 b9 f8 be 58 aa e3 be
       0.561731 -0.28220856 -0.48579192 -0.444659
0002f0 d9 09 0d 3f a1 31 fd be 93 83 ee be 52 d2 f2 be
       0.5509315 -0.49451926 -0.46584758 -0.47426087
000300 e9 71 f8 be 3e f6 ef be d7 1c d2 be 3b 2a c6 3e
       -0.48524407 -0.46867555 -0.41037628 0.38704094
000310 15 34 7f be fa 6f 47 3f 35 25 e0 3e ae af 24 3f
       -0.24922211 0.7790524 0.43778387 0.64330566
000320 ac 6d f4 be 60 3d 82 bd 13 08 22 3f 8d 55 47 3f
       -0.47739923 -0.063593626 0.6329357 0.77864915
000330 88 a8 17 3e 68 7e 93 3e ad 6c 4b be 4c 0f 3b 3e
       0.14810383 0.28807378 -0.19865675 0.18267554
000340 45 b7 8b 3e 51 73 83 3f 9c e5 63 3f bc c4 d0 3e
       0.2728826 1.0269567 0.8902223 0.40775096
000350 ec 17 91 3e e8 1d 3c 3f a7 01 ff be 69 cb 9b 3e
       0.28338563 0.73483133 -0.49805948 0.30428627
000360 94 0a 88 3e c5 bf 28 3f 2f de 2d bf 2e 0f 17 3f
       0.2657057 0.6591762 -0.6791715 0.5900754
000370 96 a7 30 be dd 6a 4b 3f 8a 5f e6 3e c7 0f 08 3f
       -0.17251429 0.79459935 0.44994766 0.53149074
000380 a8 fc e5 bd 3f 40 92 3e 32 ba 5e bd 85 ef 49 be
       -0.11229831 0.2856464 -0.05437679 -0.19720276
000390 e6 33 43 be c1 b9 11 be 4f bb 85 3d 25 5c 28 be
       -0.19062766 -0.14231016 0.06529867 -0.164414
0003a0 bd 5a b6 3e c7 f7 e9 3e b3 9b 1d be 9b 22 d9 bb
       0.35616103 0.45696852 -0.15391426 -0.0066264397
0003b0 d9 f6 8d 3e ab a1 88 3e 12 5b 2e 3f d3 d0 77 3e
       0.27727392 0.26685843 0.6810771 0.24200754
0003c0 ff 3b 39 bf 44 06 be 3d 75 00 9a bd d1 58 ba bd
       -0.7235717 0.09278539 -0.075196184 -0.09098972
0003d0 b3 30 11 be 82 36 38 be b9 35 fd be 71 53 a0 3e
       -0.14178734 -0.17989543 -0.4945505 0.3131366
0003e0 b6 37 5f be c5 a8 83 3e f3 3f 82 be 60 85 11 3f
       -0.21798596 0.25714698 -0.25439414 0.5684414
0003f0 9c fd 71 be 23 40 61 3d 37 d6 22 3f 5c 29 20 3f
       -0.236319 0.054992806 0.63608116 0.6256311

l1.bias f4 [8]
000000 37 3a e4 3e eb 07 20 3f a7 b1 09 3f 43 32 67 3f
       0.44575664 0.6251208 0.537867 0.9031107
000010 8f 02 d2 3e c0 b3 2d 3f 58 68 32 3f 9c ac 3f 3f
       0.41017577 0.678524 0.69690466 0.74872756

l2.weight f4 [8, 8]
000000 47 cc 83 3f 41 fe df 3e eb 0c 96 bf f6 a4 14 3f
       1.0296715 0.43748668 -1.1722692 0.5806421
000010 a1 10 6c 3d c9 b9 60 3f 88 11 1c 3f 5d 60 bd bf
       0.057633046 0.87783486 0.6096425 -1.4795033
000020 f0 78 3b 3f 46 4e 2e 3e 7a 8c dc 3f dc 88 b5 bd
       0.7323141 0.17022046 1.723037 -0.088639945
000030 b6 4f 7a 3f c1 f4 23 be 32 e9 43 bf f5 35 a4 3f
       0.9777788 -0.16011335 -0.765277 1.2828966
000040 64 8c 96 3f c2 a8 7f 3f d0 99 49 3e af 6a 54 3f
       1.1761594 0.9986688 0.19687581 0.82975286
000050 06 7a 5c 3f 57 da cf 3f af 60 a9 3f e7 70 90 bf
       0.86123693 1.6238507 1.323263 -1.1284455
000060 b4 c0 4c bf 52 1b b1 3f 36 5d 4a be 38 88 d0 3f
       -0.7998154 1.3836462 -0.1976212 1.6291571
000070 8b 53 92 be 10 7c ef 3d 67 e5 35 3f a4 40 bb 3e
       -0.28579363 0.11693585 0.71053165 0.36572754
000080 b8 92 7a 3f c1 2c 8f 3f 71 22 1f bf fd 77 a5 3f
       0.97880125 1.1185533 -0.6216193 1.2927243
000090 d5 9a 64 3f 86 36 32 bf 46 55 96 3f dc 60 b1 3e
       0.89298755 -0.69614446 1.1744773 0.3464421
0000a0 9d f4 a7 bf 6b 9f 5d 3f a8 4f c9 3f 5d db 77 3f
       -1.3121525 0.8657138 1.5727434 0.96819097
0000b0 af 7c 94 be e5 a2 bd 3f f5 13 b4 bf df aa 40 3f
       -0.29001376 1.4815336 -1.406859 0.7526073
0000c0 f6 9b 6c 3f 37 cf 8e 3e 36 e6 47 3f 57 96 84 3e
       0.9242548 0.27892467 0.7808565 0.2589595
0000d0 e8 57 ab 3f 06 02 db bf cb 8b 0b 3f 8a 4c f4 3e
       1.3386202 -1.7109993 0.5451018 0.47714645
0000e0 fa 54 9c 3f 08 28 fe bf b8 07 0d 3d 9e fc 4e 3e
       1.2213433 -1.9855967 0.03443119 0.20213553
0000f0 f7 df a2 3e 37 86 e7 be 9c 68 bb 3f 6e fa c7 3f
       0.31811497 -0.45219585 1.4641299 1.56233

l2.bias f4 [8]
000000 72 ce 41 bd 8b d7 bc be c7 7b 38 3e de a3 ed 3d
       -0.047316022 -0.36883196 0.18015967 0.11603521
000010 cd 5b 1b 3c 18 c9 00 3f 7c ba 0f bf 75 9e 8c 3f
       0.009482336 0.50306845 -0.5614393 1.0985857

l3.weight f4 [8, 8]
000000 31 a0 53 bf db 73 35 3e fa 24 a1 3e 53 28 1d c0
       -0.8266631 0.17719977 0.31473523 -2.4555862
000010 a4 14 6a bf e1 eb 4e 3e 1f 22 c6 bf 1b 05 87 3e
       -0.91437745 0.20207168 -1.5479163 0.26371083
000020 48 f3 15 bf ce 44 f2 3e e9 b7 ea bf fe b8 18 be
       -0.5857434 0.4731812 -1.8337375 -0.14914319
000030 16 d0 b1 bd 20 fd 82 3e 13 bd 7d 3e 96 6c ff be
       -0.08682267 0.25583744 0.24779157 -0.49887532
000040 51 98 f3 be 8f 5f 73 3e d2 10 05 3f e9 da b9 bf
       -0.47577146 0.23766921 0.5197879 -1.4519931
000050 eb ec a2 bf 28 b9 5d 3f 22 cd 39 bf 8c 85 2c c0
       -1.2728552 0.8661065 -0.7257863 -2.695651
000060 da a7 e9 bf 8a ea f6 bf 46 34 73 be d8 1e 2d 3f
       -1.8254349 -1.9290326 -0.2375041 0.6762519
000070 a9 2a df 3e 40 a1 0f bf 54 07 c3 bf 55 54 59 3f
       0.43587235 -0.5610542 -1.5236611 0.84894305
000080 b1 02 b4 3f 26 9b dc bf f6 d0 4e 3f 0d de f7 3e
       1.4063321 -1.7234848 0.807876 0.484116
000090 68 65 07 3f 1a 1d 5b bf b9 1a 37 bf 3d 5c dc bf
       0.5288911 -0.8559128 -0.7152515 -1.7215649
0000a0 4e 19 a0 bf 92 8d df be 06 3d a3 bb 21 1a 8b 3f
       -1.2507722 -0.43662697 -0.00498164 1.0867349
0000b0 b8 de 98 3d 2f 15 0f 3f aa 97 6f bf 14 89 1b c0
       0.07464355 0.558917 -0.93590796 -2.4302416
0000c0 ee de 90 bf 77 6b b4 bd 77 66 16 3f 96 a7 b0 3d
       -1.1318033 -0.0880956 0.587501 0.086257145
0000d0 bc 9e ff 3e 99 4e 5f bf 8e c9 6b 3f 1e 54 99 bf
       0.49925792 -0.87229306 0.92104423 -1.1978796
0000e0 fc a8 6b bf 9e 09 96 3e 88 7d 14 bf 5e 43 e0 bf
       -0.92054725 0.29304212 -0.58004045 -1.7520559
0000f0 ab 0b bd 3e 85 f7 d3 bf e0 1c 1b 3f 30 ab a5 3e
       0.36922964 -1.6559912 0.60590935 0.32357168

l3.bias f4 [8]
000000 39 3f a3 3e 41 e1 b9 3a 3d 38 c6 be fd e8 dc 3e
       0.31884173 0.0014181511 -0.3871478 0.43146506
000010 a4 0f 83 be fe a8 1d be 0a f2 e0 be 88 a4 bc be
       -0.2559787 -0.15396497 -0.4393466 -0.36844277
